…
[conda] pytorch-mutex             1.0                        cuda    pytorch
[conda] torchaudio                0.11.0               py39_cu113    pytorch
[conda] torchmetrics              0.9.0                    pypi_0    pypi
[conda] torchvision               0.12.0               py39_cu113    pytorch
        Pillow (9.0.1)
[2022-06-12 22:57:24,338][vision_transformer][INFO] - getting model 'vision_transformer' from torch hub
[2022-06-12 22:57:25,528][vision_transformer][INFO] - model: 'VisionTransformer' is successfully loaded
[2022-06-12 22:57:25,529][vision_transformer][INFO] - model structure: VisionTransformer(
  (conv_proj): Conv2d(3, 768, kernel_size=(16, 16), stride=(16, 16))
  (encoder): Encoder(
    (dropout): Dropout(p=0.0, inplace=False)
    (layers): Sequential(
      (encoder_layer_0): EncoderBlock(
        (ln_1): LayerNorm((768,), eps=1e-06, elementwise_affine=True)
        (self_attention): MultiheadAttention(
          (out_proj): NonDynamicallyQuantizableLinear(in_features=768, out_features=768, bias=True)
        )
        (dropout): Dropout(p=0.0, inplace=False)
        (ln_2): LayerNorm((768,), eps=1e-06, elementwise_affine=True)
        (mlp): MLPBlock(
          (linear_1): Linear(in_features=768, out_features=3072, bias=True)
          (act): GELU()
          (dropout_1): Dropout(p=0.0, inplace=False)
          (linear_2): Linear(in_features=3072, out_features=768, bias=True)
          (dropout_2): Dropout(p=0.0, inplace=False)
        )
      )
      (encoder_layer_1): EncoderBlock(
        (ln_1): LayerNorm((768,), eps=1e-06, elementwise_affine=True)
        (self_attention): MultiheadAttention(
          (out_proj): NonDynamicallyQuantizableLinear(in_features=768, out_features=768, bias=True)
        )
        (dropout): Dropout(p=0.0, inplace=False)
        (ln_2): LayerNorm((768,), eps=1e-06, elementwise_affine=True)
        (mlp): MLPBlock(
          (linear_1): Linear(in_features=768, out_features=3072, bias=True)
          (act): GELU()
          (dropout_1): Dropout(p=0.0, inplace=False)
          (linear_2): Linear(in_features=3072, out_features=768, bias=True)
          (dropout_2): Dropout(p=0.0, inplace=False)
        )
      )
      (encoder_layer_2): EncoderBlock(
        (ln_1): LayerNorm((768,), eps=1e-06, elementwise_affine=True)
        (self_attention): MultiheadAttention(
          (out_proj): NonDynamicallyQuantizableLinear(in_features=768, out_features=768, bias=True)
        )
        (dropout): Dropout(p=0.0, inplace=False)
        (ln_2): LayerNorm((768,), eps=1e-06, elementwise_affine=True)
        (mlp): MLPBlock(
          (linear_1): Linear(in_features=768, out_features=3072, bias=True)
          (act): GELU()
          (dropout_1): Dropout(p=0.0, inplace=False)
          (linear_2): Linear(in_features=3072, out_features=768, bias=True)
          (dropout_2): Dropout(p=0.0, inplace=False)
        )
      )
      (encoder_layer_3): EncoderBlock(
        (ln_1): LayerNorm((768,), eps=1e-06, elementwise_affine=True)
        (self_attention): MultiheadAttention(
          (out_proj): NonDynamicallyQuantizableLinear(in_features=768, out_features=768, bias=True)
        )
        (dropout): Dropout(p=0.0, inplace=False)
        (ln_2): LayerNorm((768,), eps=1e-06, elementwise_affine=True)
        (mlp): MLPBlock(
          (linear_1): Linear(in_features=768, out_features=3072, bias=True)
          (act): GELU()
          (dropout_1): Dropout(p=0.0, inplace=False)
          (linear_2): Linear(in_features=3072, out_features=768, bias=True)
          (dropout_2): Dropout(p=0.0, inplace=False)
        )
      )
      (encoder_layer_4): EncoderBlock(
        (ln_1): LayerNorm((768,), eps=1e-06, elementwise_affine=True)
        (self_attention): MultiheadAttention(
          (out_proj): NonDynamicallyQuantizableLinear(in_features=768, out_features=768, bias=True)
        )
        (dropout): Dropout(p=0.0, inplace=False)
        (ln_2): LayerNorm((768,), eps=1e-06, elementwise_affine=True)
        (mlp): MLPBlock(
          (linear_1): Linear(in_features=768, out_features=3072, bias=True)
          (act): GELU()
          (dropout_1): Dropout(p=0.0, inplace=False)
          (linear_2): Linear(in_features=3072, out_features=768, bias=True)
          (dropout_2): Dropout(p=0.0, inplace=False)
        )
      )
      (encoder_layer_5): EncoderBlock(
        (ln_1): LayerNorm((768,), eps=1e-06, elementwise_affine=True)
        (self_attention): MultiheadAttention(
          (out_proj): NonDynamicallyQuantizableLinear(in_features=768, out_features=768, bias=True)
        )
        (dropout): Dropout(p=0.0, inplace=False)
        (ln_2): LayerNorm((768,), eps=1e-06, elementwise_affine=True)
        (mlp): MLPBlock(
          (linear_1): Linear(in_features=768, out_features=3072, bias=True)
          (act): GELU()
          (dropout_1): Dropout(p=0.0, inplace=False)
          (linear_2): Linear(in_features=3072, out_features=768, bias=True)
          (dropout_2): Dropout(p=0.0, inplace=False)
        )
      )
      (encoder_layer_6): EncoderBlock(
        (ln_1): LayerNorm((768,), eps=1e-06, elementwise_affine=True)
        (self_attention): MultiheadAttention(
          (out_proj): NonDynamicallyQuantizableLinear(in_features=768, out_features=768, bias=True)
        )
        (dropout): Dropout(p=0.0, inplace=False)
        (ln_2): LayerNorm((768,), eps=1e-06, elementwise_affine=True)
        (mlp): MLPBlock(
          (linear_1): Linear(in_features=768, out_features=3072, bias=True)
          (act): GELU()
          (dropout_1): Dropout(p=0.0, inplace=False)
          (linear_2): Linear(in_features=3072, out_features=768, bias=True)
          (dropout_2): Dropout(p=0.0, inplace=False)
        )
      )
      (encoder_layer_7): EncoderBlock(
        (ln_1): LayerNorm((768,), eps=1e-06, elementwise_affine=True)
        (self_attention): MultiheadAttention(
          (out_proj): NonDynamicallyQuantizableLinear(in_features=768, out_features=768, bias=True)
        )
        (dropout): Dropout(p=0.0, inplace=False)
        (ln_2): LayerNorm((768,), eps=1e-06, elementwise_affine=True)
        (mlp): MLPBlock(
          (linear_1): Linear(in_features=768, out_features=3072, bias=True)
          (act): GELU()
          (dropout_1): Dropout(p=0.0, inplace=False)
          (linear_2): Linear(in_features=3072, out_features=768, bias=True)
          (dropout_2): Dropout(p=0.0, inplace=False)
        )
      )
      (encoder_layer_8): EncoderBlock(
        (ln_1): LayerNorm((768,), eps=1e-06, elementwise_affine=True)
        (self_attention): MultiheadAttention(
          (out_proj): NonDynamicallyQuantizableLinear(in_features=768, out_features=768, bias=True)
        )
        (dropout): Dropout(p=0.0, inplace=False)
        (ln_2): LayerNorm((768,), eps=1e-06, elementwise_affine=True)
        (mlp): MLPBlock(
          (linear_1): Linear(in_features=768, out_features=3072, bias=True)
          (act): GELU()
          (dropout_1): Dropout(p=0.0, inplace=False)
          (linear_2): Linear(in_features=3072, out_features=768, bias=True)
          (dropout_2): Dropout(p=0.0, inplace=False)
        )
      )
      (encoder_layer_9): EncoderBlock(
        (ln_1): LayerNorm((768,), eps=1e-06, elementwise_affine=True)
        (self_attention): MultiheadAttention(
          (out_proj): NonDynamicallyQuantizableLinear(in_features=768, out_features=768, bias=True)
        )
        (dropout): Dropout(p=0.0, inplace=False)
        (ln_2): LayerNorm((768,), eps=1e-06, elementwise_affine=True)
        (mlp): MLPBlock(
          (linear_1): Linear(in_features=768, out_features=3072, bias=True)
          (act): GELU()
          (dropout_1): Dropout(p=0.0, inplace=False)
          (linear_2): Linear(in_features=3072, out_features=768, bias=True)
          (dropout_2): Dropout(p=0.0, inplace=False)
        )
      )
      (encoder_layer_10): EncoderBlock(
        (ln_1): LayerNorm((768,), eps=1e-06, elementwise_affine=True)
        (self_attention): MultiheadAttention(
          (out_proj): NonDynamicallyQuantizableLinear(in_features=768, out_features=768, bias=True)
        )
        (dropout): Dropout(p=0.0, inplace=False)
        (ln_2): LayerNorm((768,), eps=1e-06, elementwise_affine=True)
        (mlp): MLPBlock(
          (linear_1): Linear(in_features=768, out_features=3072, bias=True)
          (act): GELU()
          (dropout_1): Dropout(p=0.0, inplace=False)
          (linear_2): Linear(in_features=3072, out_features=768, bias=True)
          (dropout_2): Dropout(p=0.0, inplace=False)
        )
      )
      (encoder_layer_11): EncoderBlock(
        (ln_1): LayerNorm((768,), eps=1e-06, elementwise_affine=True)
        (self_attention): MultiheadAttention(
          (out_proj): NonDynamicallyQuantizableLinear(in_features=768, out_features=768, bias=True)
        )
        (dropout): Dropout(p=0.0, inplace=False)
        (ln_2): LayerNorm((768,), eps=1e-06, elementwise_affine=True)
        (mlp): MLPBlock(
          (linear_1): Linear(in_features=768, out_features=3072, bias=True)
          (act): GELU()
          (dropout_1): Dropout(p=0.0, inplace=False)
          (linear_2): Linear(in_features=3072, out_features=768, bias=True)
          (dropout_2): Dropout(p=0.0, inplace=False)
        )
      )
    )
    (ln): LayerNorm((768,), eps=1e-06, elementwise_affine=True)
  )
  (heads): Linear(in_features=768, out_features=365, bias=True)
)
[2022-06-12 22:57:25,529][vision_transformer][INFO] - Initializing Datasets and Dataloaders...
[2022-06-12 22:57:25,529][vision_transformer][INFO] - loading data places365 from /root/TorchScene/places365_standard/
[2022-06-12 22:57:30,824][vision_transformer][INFO] - Params to learn:
	class_token	conv_proj.weight	conv_proj.bias	encoder.pos_embedding	
…
